sd_fused/models/approx/pretrained/vae-1.5-approx_small.pt (torch, 11693 bytes, 4 tensors)

seq.0.weight f4 [64, 4, 3, 3]
00000000: 23f6 7cbd e676 bbbd 8ade ae3c ae9c d13c
00000010: abae f7bc d95c 5b3d cc91 703d 531a a63c
00000020: 21ca 923d 6a3f 883d e898 1a3c c008 f7bd
00000030: 850c bd3d 3ef5 0ebc 81ad 08bd d3c6 90bd
00000040: 2e72 ba3d 30d7 8b3d 2b40 c33b 9025 28bd
00000050: 9726 a23d 282b 99bd b339 a9bc 34fe e43d
00000060: a81e 70bd ed67 0bbd 88b8 bc3d 9732 99bd
00000070: 6cfa 10be a63f b6bd 101f c23d 22d7 bc3d
00000080: d2ab c6bc f2cc e63c cbfa d2bd d48e 6ebc
00000090: 5a40 bbbd 3711 c0bc 9cb0 cc3d 0ab1 1c3d
000000a0: 6415 21be 159d 183d 2fef ab3d dbae d23c
000000b0: 7054 243e 1bc8 87bd e0f3 b5bd 41a8 be3c
000000c0: 6a5d 0a3d c435 e43c 5750 06bb b11a ca3d
000000d0: 0e86 9dbd f3e5 f7bd 1b13 b4bd 651e aa3b
000000e0: 33a2 493c d1cb 3c3d 6d42 bcbd 2e88 3fbd
000000f0: 3585 373d 76da 8b3d d0f9 debd 7814 d6bc
00000100: 1ec3 9abd fd7f 76bd e3a0 143e fa89 6ab9
00000110: ce93 be3d 513c 5bbd 9e44 4fbd b2a3 1ebd
00000120: 8395 1abe 39bf 7e3d 221f 2e3e c201 e8bd
00000130: 6bf5 413e 5d0a a0bd c018 d7bd 662d 78bd
00000140: 630c 83bd 2777 783d 4f6b cebd 57f6 033d
00000150: ea13 a0bc b53d f5bd 6016 c03d 4209 c43c
00000160: 528b f2ba f150 f43c 5b71 d0bd 835b bfbd
00000170: 7c01 ba3d cb6c e1bd bbb1 2e3b 5ee6 f13d
00000180: 24dc 013d ca64 bbbd 9fef e83c 183e 6a3d
00000190: f811 633d 61cb 14be a7ee c6ba c472 08be
000001a0: 49a5 8a3d 631f 8e3d 2999 2bbd 3db0 c53d
000001b0: e7a9 c93c e87e 383d eeac 82bd 4839 f73d
000001c0: 95e7 043e bb54 0c3e fdd4 cb3d 839b 053e
000001d0: e845 c7bd 2f71 e9bb 42a4 e13d e35f 05be
000001e0: 8f80 8bbd 30f4 113e 0e7e 173d 61ff cf3c
000001f0: c378 333d 3d1e 9c3d b1d7 943d c156 6b3d
00000200: f8af 643d ed9b 29bd 049d 0fbe 86b3 31bd
00000210: 4f01 a6bd 0547 e3bc 0f4f 23bc 8cf7 a4bd
00000220: 7561 e0bd f6b8 f13d a95f 1ebd 1af0 37bc
00000230: 8797 9ebd 1c92 48bd 663e 98bd 84ca a9bc
00000240: 3190 28bd 6505 e4bd b3fd 973d 1d21 213d
00000250: 6518 463d 57e5 33bd 1a40 b7bd b8e2 203d
00000260: 62ec 053e 72d3 a1bc 8984 df3d 31c1 363d
00000270: b29f f7bd e5fc 0ebe 7b23 bcbd 5e9b 0d3e
00000280: 340b 26bd 2ada d6bc f183 d4bd fd39 0d3d
00000290: 95a7 a1bc 22e9 7a3d a19a 9b3d e253 bcbd
000002a0: f5b9 9abd 704b 183e 2d40 4ebd cfb0 82bd
000002b0: 10e5 ca3d 009a 403d 8989 d0bd 5e45 453d
000002c0: 8e3e a93d 1290 5f3d ad7d a03d cfd8 c03d
000002d0: 81c0 b03d bdbf 53bd 457a d8bd d361 f13d
000002e0: dd8b 36bc bde8 f7bb 6e81 fabd 1116 003e
000002f0: 2ff0 a23d 1c78 69bd 2741 3f3c 7296 9fbc
00000300: 3a1e 2d3d f9a3 34bd dd46 1dbe c2d4 b43d
00000310: d6a3 08be 3668 7cbd 175b 8b3c e57f 263e
00000320: 8faa 1ebe a39d c2bd 984b 11bd cca8 18bd
00000330: 748e 2cbd 9890 263e b0a8 4a3d 3db3 e0bd
00000340: faa4 14be ca79 07be ce79 a83d 2259 96bb
00000350: af1f 863c d550 c13d 6c61 30be 11a7 a73d
00000360: 6d46 eebd 4d29 ac3d e40c f0bc a64f cfbd
00000370: f8f6 89bd 95ee 663d 70de 39bc 67aa 07be
00000380: d179 b2bd 57f0 1c3c 1e1e 94bc 4e8b 38bc
00000390: 53bb cebd 9182 f73d 9b21 783d 38a8 e7bd
000003a0: 2189 1e3c 9b0e fdbd fa4f febc 0557 09bd
000003b0: bacf 11bd 808b 883c 5537 fd3c f648 8abd
000003c0: 3f80 e33c 9278 a23c 02a4 81bd f51a bf3d
000003d0: e693 c93d afb1 af3d f244 95bd a555 44be
000003e0: 40aa d8bd cd8d 0fbd b653 1fbd 018f 3f3c
000003f0: bee8 9bbd 0a52 613d e7e4 ce3d 8b00 63bd
-0.06175817 -0.091535375 0.02134635 0.025587406 -0.030234655 0.053555343 0.058732793 0.020276224
0.07167459 0.0665272 0.00943587 -0.12062216 0.092309035 -0.0087254625 -0.03336859 -0.07069173
0.09103809 0.06828153 0.005958577 -0.041051447 0.07917517 -0.074789345 -0.020657396 0.11181298
-0.058622986 -0.03403466 0.09214884 -0.07480352 -0.14158028 -0.08898859 0.09478581 0.09220721
-0.024251852 0.028173897 -0.10301741 -0.01456042 -0.091431335 -0.023445709 0.09994623 0.038254775
-0.15730816 0.03725918 0.0839523 0.025718143 0.16047835 -0.06629964 -0.08884406 0.02327359
0.033780493 0.027857669 -0.0020494664 0.09868372 -0.076915845 -0.12104406 -0.087927066 0.0051916116
0.012306738 0.046092812 -0.09192357 -0.04676073 0.04480477 0.068287775 -0.10887492 -0.026132807
-0.07556747 -0.060180653 0.14514498 -0.0002236738 0.09305535 -0.05352432 -0.050602548 -0.03873033
-0.15096097 0.062194083 0.17004064 -0.1132846 0.18941276 -0.07814477 -0.105027676 -0.06059017
-0.06398847 0.060660508 -0.10079061 0.03221735 -0.019540746 -0.1197466 0.09379268 0.023930196
-0.0018504655 0.029823752 -0.10177871 -0.09343626 0.09082314 -0.11007079 0.0026656229 0.11811517
0.031704083 -0.09150083 0.028434573 0.057188123 0.05543706 -0.14530708 -0.0015177325 -0.1332503
0.06769807 0.0693958 -0.04189411 0.096527554 0.024617149 0.045042902 -0.0638064 0.120714724
0.12978967 0.13704197 0.09952734 0.13047604 -0.097301304 -0.0071240882 0.11017658 -0.13024859
-0.0681163 0.14253306 0.03698545 0.025390329 0.04381634 0.07622955 0.07267702 0.05745578
0.05583188 -0.041408468 -0.1402474 -0.043384098 -0.08105718 -0.027743826 -0.0099675795 -0.08055028
-0.109560885 0.118028566 -0.038665447 -0.011226678 -0.07743745 -0.048967466 -0.074337766 -0.02072645
-0.041153137 -0.111338414 0.07421436 0.03933822 0.04836311 -0.043919887 -0.08947773 0.039278716
0.13078454 -0.019754145 0.10913951 0.044617835 -0.12091006 -0.13963659 -0.09186455 0.13828799
-0.040538028 -0.026227076 -0.10376728 0.03447913 -0.01973323 0.06125749 0.075978525 -0.09195687
-0.07555 0.14872527 -0.05035417 -0.0638138 0.099069715 0.047021866 -0.10182483 0.048161857
0.082638845 0.054580756 0.07836471 0.09416353 0.08630467 -0.051696528 -0.10570196 0.117862366
-0.011141744 -0.0075655864 -0.12231718 0.12508418 0.07955968 -0.05699931 0.011673248 -0.019480918
0.042265154 -0.04410169 -0.15359063 0.08829643 -0.13343748 -0.06162282 0.017011208 0.16259725
-0.1549475 -0.09502723 -0.035472482 -0.037270352 -0.04212804 0.16266096 0.04947728 -0.10971687
-0.14516059 -0.13230053 0.082263574 -0.004588262 0.01637253 0.094392456 -0.17224663 0.08186162
-0.116345264 0.08406315 -0.029303022 -0.101226136 -0.06736559 0.056379873 -0.011344537 -0.13248597
-0.08714641 0.009578786 -0.018080767 -0.011263682 -0.10094323 0.120854504 0.060578924 -0.11311382
0.009676249 -0.123563014 -0.031043995 -0.033530254 -0.035598494 0.016668081 0.030910173 -0.067521974
0.027771113 0.019832883 -0.0633011 0.093313135 0.098426625 0.08578812 -0.07288541 -0.19173296
-0.105793476 -0.03504734 -0.038898192 0.01169181 -0.076127514 0.05500988 0.101022534 -0.05542044

seq.0.bias f4 [64]
00000000: f2fa 19be ae0f 4dbd cfe8 b13d e610 7dbc
00000010: 1538 bb3d 4672 2b3d e197 f93d 391e 46be
00000020: 750c ea3d 70c4 573d 5b66 c63c 1f78 56bb
00000030: 0bbf afbc b262 27be 63c6 4dbe 7ee4 1dbd
00000040: 7bfe 093d 33dc ad3d 6f08 7abd 6ab5 e03d
00000050: 87a6 003e 0101 d9bc ecfd ac3d b942 bd3d
00000060: 13d1 9c3d ab9b 8dbc e9f0 943c abc7 92bd
00000070: d05e 11be ecb8 72be f366 50bd b65d d8bc
00000080: e082 46bc 84d2 b2bd 8d12 a13d e606 2d3d
00000090: 5650 fa3d 0218 a3bd 79cb c6bd 39ea 163a
000000a0: c707 ef3c 91b9 0a3e 2b9b 313d 6109 343e
000000b0: 4875 153d 3138 2a3e 7209 3f3d d3fd 803d
000000c0: 485d f3bd a4a5 8c3d a6c8 25be f08d 553e
000000d0: 9e2b c03d 84ad 5f3e b9b0 6bbd 0f0b fe3d
000000e0: 8c46 b2bc f39a 5e3e a715 b53c 58b9 8e3e
000000f0: b20d 21be c65c 603e 5d03 8e3e 466b 193e
-0.15037134 -0.05006378 0.08686983 -0.015445923 0.09141556 0.041857027 0.12187172 -0.19347467
0.11428157 0.05267757 0.024218729 -0.0032725406 -0.021453401 -0.16346243 -0.2009521 -0.038547985
0.033689957 0.08489265 -0.0610432 0.10972102 0.12563525 -0.026489737 0.08446869 0.09241242
0.07657065 -0.017286142 0.018181281 -0.0716699 -0.14196324 -0.23703355 -0.05087943 -0.026411872
-0.012116164 -0.08731559 0.078648664 0.042242907 0.12222354 -0.079635635 -0.09706778 0.0005756948
0.029178513 0.1354735 0.04336087 0.17581703 0.0364888 0.16622998 0.046639867 0.06298413
-0.11883026 0.06867531 -0.16189823 0.20854926 0.09383319 0.21843535 -0.057541583 0.12404453
-0.021762155 0.21738796 0.022105051 0.2787578 -0.1572788 0.2191039 0.2773694 0.14982328

seq.2.weight f4 [3, 32, 1, 1]
00000000: 32e3 48bd 8e3d a9ba 7c82 d5b9 7537 8a3d
00000010: 914d 6cbd e3d7 abbc 593a 5d3d 8a1c e3bc
00000020: 70bd f73b 1e37 0fba 3e64 973c de9b 003d
00000030: 560a 01bd 19b6 363c 4087 d6bc 0cad 8b3d
00000040: 1911 15bc 9633 033d dbdc 443d d5d3 4ebd
00000050: 911e 363d d9e1 d93b b7f4 a93c 5c28 363d
00000060: 9f8c cfbc 1f9b 5a3d e41f a33c e4c8 0fbd
00000070: 1cce 06bd 6538 b5bc 28a3 603d 832f 263d
00000080: 779b 673d 4a4d 19bd 5ac7 5c3c 4ae4 f53c
00000090: 00d8 093d 70d8 a43c 385a b13d 19ba 0c3d
000000a0: f087 f2bc c4bb f6bc 4cdb b63c 6f4e 9cbd
000000b0: 60e7 de3c 43ba 8e3a 9a52 583d ac7c 1abd
000000c0: 88f0 e3bc 397f 8cbc 2cf3 98bb 400e 0a3c
000000d0: 4a9e ae3c 4a00 b63c 66e2 943c 4dec e03c
000000e0: 6e98 0abd 7c31 843d da9a 9c3c 3c73 95bd
000000f0: 4eaf fd3b 1608 a0bc 507b 21bd 25e6 7a3d
00000100: 16bc 3b3d fbeb e9bc 9f24 de3c 209a 2e3d
00000110: 9cfa 28bd cd3f 093d 4d37 863d 2480 3f3d
00000120: 26ef bfbd 5a43 16bd 9362 9d3d 1c55 7fbd
00000130: 40e7 debc 99c9 753d 49c2 893d 6217 99bd
00000140: 59b7 2fbd 21c1 c23d 536b edbb 391a f7bc
00000150: 173b 35bc 489b 2e3d b8c6 2a3b 4e1f 763c
00000160: 7725 02bd 04c1 843d 284a f5bb d5f3 70bd
00000170: 1532 b63c 2931 bc3b 1edb 5f3d 4468 78bd
-0.049044795 -0.0012912021 -0.00040723744 0.06748859 -0.05769116 -0.020976966 0.054010723 -0.02772357
0.0075604245 -0.000546323 0.018480416 0.031398647 -0.031503998 0.011151814 -0.02618754 0.068201154
-0.009098315 0.032031618 0.048062187 -0.050494988 0.044462744 0.0066492376 0.020746572 0.044472083
-0.025335608 0.05337059 0.019912668 -0.035103694 -0.032911405 -0.022121618 0.054843098 0.040572654
0.056544747 -0.037427224 0.0134752635 0.030016083 0.03365326 0.020122737 0.08659786 0.034357164
-0.029605836 -0.03011883 0.022321366 -0.076321475 0.027209938 0.001088925 0.05281315 -0.037716553
-0.027824655 -0.017150508 -0.00466766 0.008426249 0.021315712 0.022216935 0.018174361 0.027456427
-0.033836775 0.06454751 0.019116808 -0.0729737 0.007741845 -0.019535106 -0.03942424 0.06125464
0.04583367 -0.028554907 0.027117072 0.042627454 -0.041254625 0.03350811 0.065535165 0.046753064
-0.09371786 -0.036685325 0.07684817 -0.062337026 -0.027209878 0.06000671 0.0672651 -0.07475163
-0.042899463 0.09509493 -0.00724546 -0.030163871 -0.011061451 0.042628556 0.0026058387 0.015022112
-0.03177401 0.06482127 -0.0074856468 -0.058826286 0.022240678 0.005743165 0.054652326 -0.06064631

seq.2.bias f4 [3]
00000000: 6c45 c1bc 1889 dfbd 4233 59be
-0.023592673 -0.109148204 -0.2121096
